…
---------------------

首先导入用于掩码语言建模（MLM）的RoBERTa模型：

.. raw:: latex

   \diilbookstyleinputcell

.. code:: python

    from transformers import RobertaForMaskedLM

使用上面创建的配置来初始化模型：

.. raw:: latex

   \diilbookstyleinputcell

.. code:: python

    model = RobertaForMaskedLM(config=config)

打印模型可以看到，它是一个有6层和12个注意力头的BERT模型：

.. raw:: latex

   \diilbookstyleinputcell

.. code:: python

    print(model)


.. raw:: latex

   \diilbookstyleoutputcell

.. parsed-literal::
    :class: output

    RobertaForMaskedLM(
      (roberta): RobertaModel(
        (embeddings): RobertaEmbeddings(
          (word_embeddings): Embedding(52000, 768, padding_idx=1)
          (position_embeddings): Embedding(514, 768, padding_idx=1)
          (token_type_embeddings): Embedding(1, 768)
          (LayerNorm): LayerNorm((768,), eps=1e-12, elementwise_affine=True)
          (dropout): Dropout(p=0.1, inplace=False)
        )
        (encoder): RobertaEncoder(
          (layer): ModuleList(
            (0-5): 6 x RobertaLayer(
              (attention): RobertaAttention(
                (self): RobertaSelfAttention(
                  (query): Linear(in_features=768, out_features=768, bias=True)
                  (key): Linear(in_features=768, out_features=768, bias=True)
                  (value): Linear(in_features=768, out_features=768, bias=True)
                  (dropout): Dropout(p=0.1, inplace=False)
                )
                (output): RobertaSelfOutput(
                  (dense): Linear(in_features=768, out_features=768, bias=True)
                  (LayerNorm): LayerNorm((768,), eps=1e-12, elementwise_affine=True)
                  (dropout): Dropout(p=0.1, inplace=False)
                )
              )
              (intermediate): RobertaIntermediate(
                (dense): Linear(in_features=768, out_features=3072, bias=True)
                (intermediate_act_fn): GELUActivation()
              )
              (output): RobertaOutput(
                (dense): Linear(in_features=3072, out_features=768, bias=True)
                (LayerNorm): LayerNorm((768,), eps=1e-12, elementwise_affine=True)
                (dropout): Dropout(p=0.1, inplace=False)
              )
            )
          )
        )
      )
      (lm_head): RobertaLMHead(
        (dense): Linear(in_features=768, out_features=768, bias=True)
        (layer_norm): LayerNorm((768,), eps=1e-12, elementwise_affine=True)
        (decoder): Linear(in_features=768, out_features=52000, bias=True)
      )
    )


在继续之前，请花些时间仔细研究上述模型输出的细节。这样您将能够从内部了解模型。

探索模型参数
~~~~~~~~~~~~

上面的模型算规模较小的，共有84,095,008个参数，可以用代码查看其参数量：

.. raw:: latex

   \diilbookstyleinputcell

.. code:: python

    print(model.num_parameters())


.. raw:: latex

   \diilbookstyleoutputcell

.. parsed-literal::
    :class: output

    83504416


代码打印的参数量只是一个大致的数，不同transformers版本之间可能有细微的差别。
…
